assets/SensorsModel.tflite (tflite, 6920 bytes, 8 tensors)

sequential/dense/BiasAdd/ReadVariableOp/resource f4 [16]
0	0xbd80517e	-0.062655434
1	0x3ef14823	0.47125348
2	0xbe25dc21	-0.16197254
3	0x3cfc90f8	0.030830845
4	0x3cccceb7	0.025000913
5	0xbe41b765	-0.18917616
6	0xbe94ed92	-0.29087502
7	0xbe68f99f	-0.22751473
8	0xbe400a70	-0.18753982
9	0x3f0312e0	0.51200676
10	0x3e381843	0.17978005
11	0x3f277d29	0.65425354
12	0xbcb14b54	-0.021642365
13	0xbe1b7b42	-0.15183738
14	0xbdd95c75	-0.10613338
15	0xbe1b88d0	-0.15188909

sequential/dense_1/BiasAdd/ReadVariableOp/resource f4 [32]
0	0xbe284c7f	-0.16435431
1	0x3edf4dea	0.4361413
2	0xbe51a5fc	-0.20473474
3	0xbe88b21d	-0.2669839
4	0x3e4d022a	0.20020357
5	0x3eebb030	0.46032858
6	0x3f0419cb	0.51601857
7	0x3e29d171	0.16583802
8	0xbe05b89b	-0.13058703
9	0x3ef3cdaa	0.47617847
10	0x3f044f8a	0.51683867
11	0xbe4b6c58	-0.19865549
12	0xbea90566	-0.3301193
13	0xbe750d8d	-0.2393095
14	0x3f13f126	0.5778984
15	0xbd93b4aa	-0.07212193
16	0x3ef0ee01	0.47056583
17	0xbdf305c2	-0.118663326
18	0xbe7c4515	-0.24635728
19	0x3ef578e0	0.47943783
20	0xbdc4971c	-0.09599134
21	0x3e3b079f	0.18264626
22	0xbd11742c	-0.03551118
23	0x3ee656c1	0.44988063
24	0xbe5f073b	-0.21780102
25	0xbe6f3f37	-0.23363958
26	0xbe610cdf	-0.21977566
27	0xbe5fef79	-0.21868695
28	0xbe950eaa	-0.2911275
29	0xbe1adfaa	-0.15124384
30	0x00000000	0.0
31	0x3f11993c	0.5687444

sequential/dense_2/BiasAdd/ReadVariableOp/resource f4 [16]
0	0xbb2df76e	-0.0026545185
1	0x3eb79b8d	0.35860863
2	0x3d5313af	0.051532444
3	0xbdd327fe	-0.10310362
4	0xbeaf7079	-0.34265497
5	0xbe958229	-0.29200867
6	0xbe2b0e39	-0.16704644
7	0xbd017813	-0.031608652
8	0x3f0c2408	0.5474248
9	0xbdcd92f8	-0.10037798
10	0xbe96807a	-0.29394895
11	0x3f071f83	0.5278246
12	0x3cfe3dae	0.03103527
13	0xbd3bc330	-0.045840442
14	0x3f112f13	0.56712455
15	0x3ef39b08	0.47579217

sequential/dense_3/BiasAdd/ReadVariableOp/resource f4 [3]
0	0xbed645bc	-0.41850078
1	0x3d5fa80e	0.05460363
2	0x3e9cfe7e	0.30662912

sequential/dense/MatMul f4 [16, 3]
0	0x3f1ad920	0.60487556
1	0x3dd3df14	0.10345283
2	0x3bc95319	0.006143939
3	0xbec9710a	-0.39344054
4	0x3ee28441	0.44241527
5	0x3eda73d0	0.42666483
6	0xbee76310	-0.45192766
7	0x3ebfc604	0.3745576
8	0x3ef07700	0.4696579
9	0xbd820d3e	-0.06350182
10	0xbe7a66ca	-0.24453273
11	0x3f1ec899	0.6202484
12	0xbef9ca4e	-0.4878716
13	0x3eaf460e	0.34233135
14	0xbeeb2e30	-0.45933676
15	0x3e6a936e	0.22907802
16	0x3e8c3f24	0.27391922
17	0x3f0b0bc3	0.5431482
18	0xbe71d2b9	-0.2361554
19	0x3edf9c68	0.43674016
20	0x3c99a163	0.018753713
21	0xbf07505c	-0.52856994
22	0x3e86ab55	0.2630259
23	0x3ea756ea	0.32683498
24	0x3f210526	0.6289848
25	0x3ec041a7	0.3755009
26	0x3e89667b	0.26836
27	0x3e9c28a4	0.30499756
28	0xbe609b4d	-0.21934243
29	0x3dfdda9e	0.123952135
30	0x3e45e120	0.1932416
31	0xbed4de1d	-0.4157571
32	0xbe5751dd	-0.21027322
33	0xbe362f40	-0.17791462
34	0xbd7192f2	-0.05897803
35	0x3e9cca31	0.3062301
36	0x3e65be77	0.22435938
37	0xbe83c24e	-0.2573418
38	0xbebdbe6f	-0.37059352
39	0x3ed599bf	0.4171886
40	0xbf044d9a	-0.5168091
41	0xbf185320	-0.5950184
42	0xbec1639e	-0.37771314
43	0xbf2b6f2c	-0.6696651
44	0x3eb55ab3	0.3542076
45	0xbe8bcd06	-0.27304858
46	0xbed6f3f8	-0.41983008
47	0x3ee3c525	0.44486347

sequential/dense_1/MatMul f4 [32, 16]
0	0xbd790ac8	-0.060801297
1	0xbe572e14	-0.21013671
2	0xbe9cd833	-0.30633697
3	0xbd158461	-0.0365032
4	0x3ee9ea56	0.45686597
5	0x3e7fc2c4	0.24976641
6	0xbcd93818	-0.026516005
7	0x3e9e7d97	0.30955192
8	0x3e4bda8d	0.1990759
9	0x3e23c9df	0.15994976
10	0xbe593e70	-0.21215224
11	0x3d8a1531	0.06742323
12	0x3eb4d204	0.3531648
13	0x3e11f89f	0.14254998
14	0x3eab6a30	0.33479452
15	0x3eac649c	0.3367051
16	0xbdc1acab	-0.09456762
17	0x3ebb3b88	0.36568856
18	0x3e7f15f4	0.24910718
19	0x3d02cf3f	0.031935927
20	0xbe2cccdb	-0.16875021
21	0xbe94941e	-0.29019254
22	0xbeeaf256	-0.45888013
23	0x3d8a40ef	0.06750666
24	0xbd99c47f	-0.07508182
25	0x3e8b6d62	0.2723189
26	0x3e715bb6	0.23570141
27	0x3e90e4c6	0.2829954
28	0xbe1abc84	-0.15110976
29	0x3d4a6046	0.04940822
30	0xbed34cef	-0.41269633
31	0x3dba716c	0.09103665
32	0xbe6304a5	-0.2216974
33	0x3e0f573b	0.1399812
34	0x3d9ce333	0.07660522
35	0x3e3437fa	0.17599478
36	0xbd8fcb23	-0.07021167
37	0xba9f747d	-0.0012165454
38	0xbd1ce402	-0.038303383
39	0x3ecc51cf	0.39906165
40	0x3dd734da	0.105081275
41	0x3e813138	0.25232863
42	0xbdcc1471	-0.099648364
43	0xbe0024ec	-0.12514085
44	0x3e623e50	0.22094083
45	0xbdd0e8a2	-0.10200621
46	0x3db4f150	0.08835089
47	0x3d87e5ed	0.06635652
48	0x3b002ab5	0.0019556705
49	0xbda0a66d	-0.07844243
50	0x3ef07061	0.46960738
51	0xbe5f8af5	-0.21830352
52	0x3c567149	0.013088533
53	0x3f018212	0.50589097
54	0xbdd338af	-0.10313546
55	0x3e02636e	0.12733242
56	0x3ddf0bbf	0.10890912
57	0xbb9eec62	-0.0048499564
58	0x3e425e20	0.18981218
59	0xbd2799c4	-0.040918127
60	0x3e809f01	0.2512131
61	0x3ed2058f	0.41019866
62	0x3efb8209	0.49122646
63	0x3ed3ec75	0.4139134
64	0xbe013223	-0.12616782
65	0xbd329256	-0.043596588
66	0x3cceef14	0.025260486
67	0x3e0863c0	0.13319302
68	0xbd425e21	-0.04745305
69	0xbebdcd5c	-0.3707074
70	0xbe95c7c7	-0.2925398
71	0x3db926b9	0.09040589
72	0xbdce2e36	-0.10067408
73	0xbd30dbac	-0.043178245
74	0xbdc95c74	-0.09832087
75	0x3e24cc69	0.16093601
76	0x3e216579	0.15761365
77	0x3caac7e2	0.020847265
78	0xbd2a6d7a	-0.04160831
79	0x3ea2672d	0.31719342
80	0x3d436c7d	0.047710884
81	0xbe33a1ac	-0.17542142
82	0xbe91b6c7	-0.2845976
83	0xbe8b0a03	-0.27156076
84	0x3d91d7c5	0.07121233
85	0x3e305e1d	0.17223401
86	0x3e8c4460	0.27395916
87	0xbe8a19f9	-0.2697294
88	0x3e752385	0.23939331
89	0xbd43f924	-0.04784502
90	0xbd3f459b	-0.04669724
91	0x3e4d5178	0.20050609
92	0xbe8a8326	-0.27053183
93	0x3e1a317e	0.15057942
94	0x3e8e226b	0.27760634
95	0x3d8de98a	0.0692931
96	0xbea07f77	-0.31347248
97	0xbcab4324	-0.020906039
98	0xbe83e87e	-0.25763315
99	0x3e81a41c	0.25320518
100	0xbe0fc2d8	-0.1403917
101	0xbe01a071	-0.1265886
102	0x3db99a6c	0.09062657
103	0x3db7372b	0.08946069
104	0x3d5ae331	0.053439323
105	0x3dc03772	0.09385575
106	0x3de58a12	0.112079754
107	0x3ef2fc27	0.47458002
108	0x3e7ea3dc	0.24867195
109	0xbe240e34	-0.16021043
110	0xbe014064	-0.1262222
111	0xbec783b9	-0.38967684
112	0x3ea8de57	0.32982132
113	0xbc9f7e8b	-0.01946952
114	0x3ea1fbde	0.31637472
115	0xbdc5ce68	-0.096585095
116	0x3eb2984e	0.34881824
117	0xbd1409b1	-0.036142055
118	0xbdd369b6	-0.10322897
119	0x3e853811	0.26019338
120	0x3d569e84	0.052397266
121	0xbe773bce	-0.24143907
122	0x3e6c8c49	0.2310039
123	0x3e89480f	0.2681279
124	0x3ebebd5e	0.3725385
125	0xba999f4e	-0.001172045
126	0x3ed5a59e	0.41727918
127	0x3eb4aa72	0.3528629
128	0x3e4087d8	0.1880182
129	0xbe68009c	-0.22656482
130	0xbea92800	-0.3303833
131	0x3e7fb25a	0.2497038
132	0xbe723238	-0.2365197
133	0x3c98e3bb	0.018663278
134	0x3dc5803b	0.09643599
135	0x3e630863	0.22171168
136	0x3e16e605	0.14736183
137	0x3d9f99ce	0.07793008
138	0x3dba76f2	0.09104718
139	0xbda1c1d5	-0.07898299
140	0x3dd8b3f6	0.105812
141	0x3cfda1ce	0.030960944
142	0x3dc8f5d8	0.09812516
143	0x3e35093c	0.17679304
144	0x3e9c4400	0.3052063
145	0xbc191bbf	-0.009344994
146	0xbdfd184f	-0.12358152
147	0xbe434b32	-0.19071653
148	0x3d9b09c3	0.07570221
149	0xbe9a33e0	-0.30117702
150	0xbddf9ec6	-0.109189555
151	0x3e9bd845	0.30438438
152	0xbd714a76	-0.058908902
153	0x3e660838	0.22464073
154	0x3e998808	0.29986596
155	0x3edfe91e	0.43732542
156	0x3eb3cba3	0.351163
157	0xbe05b99a	-0.13059083
158	0xbe29542f	-0.1653602
159	0xbe44d7d8	-0.19222963
160	0x3d001bc0	0.031276464
161	0x3ddaf4d3	0.10691228
162	0xbe453603	-0.19258885
163	0x3e7f0b73	0.24906711
164	0xbe92bd77	-0.28660175
165	0xbed0ab55	-0.40755716
166	0x3ce120ea	0.027481515
167	0x3d60804a	0.054809846
168	0x3e30cbaa	0.17265192
169	0xbe332b3d	-0.17496963
170	0x3d92001e	0.071289286
171	0x3ee210e7	0.4415352
172	0xbeab3b98	-0.33443904
173	0x3e95d978	0.29267478
174	0xbe8814cb	-0.26578364
175	0xbeb4fd22	-0.35349375
176	0x3eac7560	0.336833
177	0xbe239d3a	-0.15977946
178	0x3e77d894	0.24203712
179	0x3edf7e21	0.43650916
180	0x3d675d25	0.056485314
181	0x3ef8f31f	0.48622987
182	0x3dc635d0	0.09678233
183	0x3e8dd1ae	0.27699035
184	0x3f08abae	0.5338696
185	0xbd8fd15a	-0.070223525
186	0xbd896c42	-0.06710102
187	0x3d7459bb	0.059655886
188	0xbd832ec6	-0.06405406
189	0x3eb0fb8c	0.34566915
190	0xbe6070e3	-0.21918063
191	0x3ea66555	0.32499185
192	0x3dc12f5a	0.0943286
193	0x3d10c010	0.035339415
194	0x3e854339	0.2602785
195	0x3dd71638	0.10502285
196	0xbe3c7f93	-0.1840804
197	0x3e806675	0.2507817
198	0x3eef03d0	0.46682596
199	0x3ebb1088	0.3653605
200	0xbdf77d2a	-0.1208442
201	0xbc36ac87	-0.011149532
202	0x3e69dd34	0.22838289
203	0x3e9cb2de	0.30605215
204	0x3e3e19e0	0.18564558
205	0x3e14f1b4	0.14545327
206	0x3e3f7cb9	0.18699922
207	0x3e99d4d2	0.30045182
208	0x3ede2ab0	0.43391943
209	0x3da238cd	0.0792099
210	0x3dce2f0c	0.10067567
211	0x3d678f43	0.05653311
212	0x3eabefb8	0.33581328
213	0x3e940e50	0.2891717
214	0x3ebc4a24	0.36775315
215	0x3d88d744	0.06681684
216	0x3e6cd658	0.2312864
217	0xbe1f398d	-0.15549298
218	0x3bd85f20	0.0066031367
219	0xbd30f360	-0.04320085
220	0x3cdf3bbf	0.027250169
221	0x3ee64a6b	0.4497865
222	0x3e8430c0	0.25818443
223	0x3ea4b06d	0.32165852
224	0x3e6c4ff1	0.2307737
225	0x3eecf395	0.46279588
226	0x3e852d27	0.2601101
227	0x3e4c70a7	0.19964848
228	0x3d0a9df6	0.03384205
229	0xbcad72c9	-0.021172898
230	0xbe9f933c	-0.31167018
231	0xbeb4ce2d	-0.3531355
232	0x3dc2a8d5	0.095048584
233	0x3e19d9b6	0.15024456
234	0x3e99bbd6	0.3002612
235	0x3ef75dc2	0.4831372
236	0xbe908ddd	-0.28233233
237	0xbe66ff77	-0.2255839
238	0x3e0ae078	0.1356219
239	0x3d34ed22	0.04417146
240	0x3ddae017	0.10687273
241	0xbc354030	-0.011062667
242	0x3d286ae1	0.041117553
243	0xbe01a9bd	-0.12662406
244	0x3eb9fde3	0.36326513
245	0x3e7d679f	0.2474656
246	0x3f2429b7	0.6412615
247	0xbb95d69c	-0.0045727026
248	0x3da85e7c	0.082211465
249	0xbe905b4d	-0.28194657
250	0xbd732c63	-0.059368502
251	0x3d71786d	0.058952738
252	0x3e92a758	0.28643298
253	0x3a88c9f0	0.0010436159
254	0x3e8df767	0.27727816
255	0x3e286843	0.16446023

sequential/dense_2/MatMul f4 [16, 32]
0	0xbe9cf557	-0.3065593
1	0xbe8f5312	-0.27993065
2	0xbe9cf53a	-0.30655843
3	0xbe7f9783	-0.24960141
4	0xbeb435ac	-0.35197198
5	0xbe6062bc	-0.21912664
6	0x3db5624a	0.08856638
7	0x3e7b5e20	0.24547625
8	0xbe774367	-0.24146806
9	0xbe197caf	-0.1498897
10	0xbe424848	-0.18972886
11	0x3ea1b90c	0.31586492
12	0x3c571b78	0.013129108
13	0xbe3dd39d	-0.18537755
14	0xbea5e676	-0.3240239
15	0xbe99a078	-0.3000524
16	0xbcd1379c	-0.025539212
17	0xbe0c19de	-0.13681743
18	0x3e23fefc	0.16015238
19	0x3e0647b2	0.13113287
20	0x3a023225	0.00049665786
21	0xbe9e9a3a	-0.3097704
22	0x3e338dcd	0.17534561
23	0x3e468948	0.19388306
24	0x3e810bbf	0.25204274
25	0xbdf7c7c9	-0.12098653
26	0xbe39df44	-0.18151575
27	0x3e99b7c7	0.30023023
28	0xbe714c61	-0.23564292
29	0xbe1355e3	-0.14388232
30	0xbe6102c0	-0.21973705
31	0xbe98c0af	-0.29834506
32	0xbed8e7a2	-0.42364222
33	0x3ef4dba1	0.47823814
34	0x3e1fc062	0.15600732
35	0xbe2a61b6	-0.16638836
36	0x3ec0576e	0.37566704
37	0x3e7e1033	0.24810867
38	0x3f2e1880	0.68006134
39	0xbe7a79eb	-0.2446057
40	0xbcfe0dd1	-0.031012448
41	0xbcb16bd8	-0.02165787
42	0x3e6cffe8	0.23144495
43	0xbef8c49e	-0.48587507
44	0xbd22fbbf	-0.039790865
45	0xbf2516c5	-0.6448787
46	0x3e303b3f	0.172101
47	0xbf150581	-0.58211523
48	0x3e76ad02	0.24089435
49	0xbee7c7c5	-0.452696
50	0x3d19fe0c	0.037595794
51	0x3f0490ea	0.5178362
52	0x3daf49cf	0.08559
53	0x3e851cf7	0.2599866
54	0x3e3d3707	0.18478023
55	0x3ef5e75a	0.4802807
56	0xbe5973b9	-0.21235551
57	0xbf07ef02	-0.5309907
58	0xbe96ed09	-0.29477718
59	0xbee2d286	-0.44301242
60	0xbf3980a5	-0.7246192
61	0xbf132ef0	-0.57493496
62	0x3eb49d61	0.3527632
63	0x3ea1d638	0.31608748
64	0x3e259b36	0.1617249
65	0xbee90321	-0.455102
66	0xbbf694e1	-0.007525072
67	0x3e3e6967	0.18594895
68	0x3e96141e	0.29312223
69	0xbe67e818	-0.2264713
70	0x3d22b20a	0.039720573
71	0x3e85a9cb	0.26106104
72	0xbd22a4d4	-0.039707974
73	0x3e1125ef	0.14174627
74	0xbea7e60a	-0.32792693
75	0x3d134c27	0.035961296
76	0xbd296e2b	-0.04136483
77	0x3e23c0f4	0.15991575
78	0x3d3d07b4	0.046149924
79	0x3cf3c35e	0.029756244
80	0x3e63e02a	0.2225348
81	0xbe82fbb0	-0.25582647
82	0x3ed3e5ed	0.41386357
83	0x3c3c5ac2	0.011496248
84	0x3e9360d5	0.28784814
85	0x3d00e97d	0.03147267
86	0xbe60ee6d	-0.21965952
87	0xbd707e08	-0.058713943
88	0x3de94200	0.113895416
89	0xbe940ce6	-0.2891609
90	0x3e84e734	0.25957644
91	0xbe53dce9	-0.2068974
92	0x3e228928	0.15872633
93	0x3e3be86c	0.1835038
94	0xbe9ccb7e	-0.30624002
95	0x3c3a080c	0.011354458
96	0xbd4238e5	-0.04741754
97	0xbda5ffae	-0.08105408
98	0x395e787c	0.00021216454
99	0x3f013c1e	0.50482357
100	0xbc352e8b	-0.01105846
101	0x3edc53ef	0.43032786
102	0xbe2ce82a	-0.16885439
103	0x3e2c62f9	0.1683463
104	0x3e8eb39d	0.2787141
105	0xbe674cf1	-0.22587945
106	0xbed2cf77	-0.41173908
107	0x3ed04180	0.40674973
108	0x3ed2f601	0.4120331
109	0x3f39eced	0.72627145
110	0xbe1b35dd	-0.15157266
111	0x3e6a6366	0.2288948
112	0x3e99bfef	0.30029246
113	0x3d8b1d61	0.06792713
114	0xbda878fe	-0.082262024
115	0xbe34c8a3	-0.17654662
116	0x3d2e8c56	0.042614304
117	0xbed34040	-0.41259956
118	0xbdc4f7f4	-0.09617606
119	0x3e29990f	0.16562293
120	0x3db4de56	0.0883147
121	0x3ccdc9a6	0.025120568
122	0x3e60622b	0.21912448
123	0x3d24dedf	0.04025161
124	0x3ee0e1ff	0.4392242
125	0x3e94606f	0.28979823
126	0x3df76930	0.1208061
127	0x3eab605a	0.33471948
128	0x3e63e6ef	0.22256063
129	0x3e34d6cd	0.17660065
130	0x3e42104f	0.18951534
131	0x3ddaebf2	0.10689534
132	0xbe814101	-0.25244907
133	0xbdf6ce06	-0.120510146
134	0xbee36adb	-0.44417462
135	0x3e23519c	0.159491
136	0x3e6b9dad	0.23009367
137	0xbee8f429	-0.4549878
138	0xbe4b36b0	-0.1984508
139	0x3da9d6c5	0.08292917
140	0x3e54e4f9	0.20790471
141	0x3f07133f	0.5276374
142	0xbe948e73	-0.2901493
143	0x3d5f56e8	0.05452624
144	0xbe35dccf	-0.17760013
145	0xbd844df0	-0.06460178
146	0x3ee13433	0.43985137
147	0xbe76fea8	-0.24120581
148	0x3eaa6e02	0.33287054
149	0xbead400e	-0.33837932
150	0x3d936508	0.071970046
151	0xbeb94e7c	-0.3619269
152	0x3d244bd2	0.04011137
153	0x3ecdfa4b	0.4023002
154	0xbcb33011	-0.021873506
155	0xbdcedd0b	-0.10100754
156	0x3ee6105c	0.44934356
157	0xbd9bf6b0	-0.07615411
158	0xbe76133c	-0.24030775
159	0x3de9e15e	0.114199385
160	0x3db5f853	0.08885255
161	0x3cc4ea38	0.024037465
162	0x3e9d1e5a	0.3068722
163	0x3eb9ee6a	0.36314708
164	0xbcb31908	-0.021862522
165	0xbe054815	-0.13015778
166	0xbec28253	-0.37990054
167	0xbdad873a	-0.08473058
168	0xbcf22763	-0.029559797
169	0x3d7e0728	0.062018543
170	0xbe3ee727	-0.18642865
171	0x3dd97cb4	0.10619488
172	0x3dad39d0	0.084582925
173	0x3dc4554e	0.09586583
174	0xbe6e3b4d	-0.23264809
175	0x3cef9b8d	0.029248977
176	0xbeab7dee	-0.33494514
177	0xbdefe276	-0.11713116
178	0x3e5fe659	0.21865214
179	0x3a8f16a5	0.0010916783
180	0x3ea510e6	0.32239455
181	0xbea2861d	-0.31742945
182	0x3ec0bfba	0.37646276
183	0x3dd12465	0.1021202
184	0x3e4e21d7	0.20130096
185	0xbd7b25c3	-0.06131531
186	0x3eabb139	0.33533648
187	0x3de7ce48	0.11318642
188	0x3e6035ff	0.21895598
189	0x3dc879e9	0.097888775
190	0x3ea631c9	0.32459858
191	0x3bff2ab0	0.007787071
192	0x3e258507	0.16164027
193	0xbecf8208	-0.40528893
194	0x3eab3655	0.3343989
195	0x3f06cd88	0.52657366
196	0x3e6bd938	0.23032081
197	0xbd94a762	-0.07258488
198	0xbebf529b	-0.3736771
199	0x3edcc484	0.4311868
200	0xbd1c2f1e	-0.038130872
201	0x3dbe9cae	0.09307228
202	0xbe3b19fa	-0.18271628
203	0x3edfc634	0.43705904
204	0x3e857476	0.26065415
205	0x3f801c99	1.0008727
206	0x3bc122f6	0.0058940602
207	0x3ed70fb9	0.42004183
208	0xbdddd3ae	-0.1083139
209	0xbdd42bf3	-0.10359945
210	0x3ef0c713	0.47026882
211	0xbec9ba54	-0.3939997
212	0x3f230b71	0.63689333
213	0xbecf1398	-0.40444636
214	0xbe3e4cc1	-0.18583967
215	0xbe594375	-0.21217139
216	0x3efdb68c	0.49553335
217	0x3f095393	0.5364315
218	0x3ea7c341	0.32766154
219	0x3f1b6fcc	0.60717463
220	0x3efe5f5f	0.49682137
221	0x3f1b900f	0.6076669
222	0xbe80bfc0	-0.25146294
223	0x3e9f00a6	0.31055182
224	0xbdf3ce1f	-0.11904549
225	0xbe30617a	-0.17224684
226	0x3e0a3529	0.13496841
227	0xbe28da5a	-0.16489545
228	0xbc736ae0	-0.014857024
229	0xbe62329a	-0.22089615
230	0xbe283ec1	-0.16430189
231	0x3b98ebc6	0.0046667783
232	0x3e2863a4	0.1644426
233	0x3e470a8f	0.19437622
234	0x3d41dd18	0.047329992
235	0x3e29b494	0.16572791
236	0x3c661c1c	0.014044788
237	0x3e5f635e	0.2181525
238	0x3e90548d	0.28189507
239	0xbe90ceb1	-0.28282693
240	0xbdfe42ae	-0.12415062
241	0x3e1bfb61	0.15232612
242	0xbe558af5	-0.20853789
243	0xbe1dae77	-0.15398584
244	0x3dec70f2	0.1154498
245	0x3e08d9f5	0.13364394
246	0xbe78b711	-0.24288584
247	0xbe26d92b	-0.1629378
248	0xbda8019e	-0.082034335
249	0xbe8e5bbb	-0.2780436
250	0x3e6201a9	0.22070946
251	0xbca4d77c	-0.020122282
252	0xbe822249	-0.25416782
253	0xbe8b3b1e	-0.2719354
254	0xbdabcfac	-0.0838922
255	0xbe5c3693	-0.21505193

sequential/dense_3/MatMul f4 [3, 16]
0	0xbe4ee3f2	-0.20204142
1	0xbf0ac988	-0.5421376
2	0xbd80bce2	-0.062860265
3	0x3e80f5dc	0.25187576
4	0x3f5bbbc4	0.8583338
5	0xbc3ae61f	-0.011407404
6	0x3f0cc541	0.54988486
7	0xbefbbd79	-0.49167994
8	0xbf42d7c3	-0.76110476
9	0x3e99db20	0.30049992
10	0x3e61a6e4	0.2203632
11	0xbf295300	-0.6614227
12	0x3daaf285	0.08347038
13	0xbe371e6a	-0.17882696
14	0xbf3ddfb4	-0.7416947
15	0xbe5f8059	-0.21826304
16	0x3e263fd3	0.16235285
17	0xbf8956d4	-1.0729623
18	0x3ea48b7a	0.32137662
19	0x3f037951	0.5135699
20	0xbf0a4bf3	-0.5402214
21	0xbf461b9f	-0.77385896
22	0x3e855aeb	0.26045927
23	0x3f06d78a	0.52672637
24	0x3ed76260	0.42067242
25	0x3ed7ebe5	0.4217216
26	0xbe60fe11	-0.21971919
27	0x3eefd3e0	0.46841335
28	0xbead3ea9	-0.33836868
29	0xbccf2081	-0.025284054
30	0xbc974ceb	-0.018469295
31	0x3e9a505c	0.30139434
32	0xbe1b9711	-0.15194346
33	0x3f4757bf	0.77868265
34	0xbef4bd8c	-0.47800863
35	0xbef49778	-0.4777181
36	0x3ef1e936	0.47248238
37	0xbeec3b25	-0.46138874
38	0xbf903304	-1.1265569
39	0xbea894bd	-0.32925978
40	0x3f45fd1a	0.7733933
41	0xbf8934d3	-1.0719246
42	0xbf82aff3	-1.0209945
43	0x3f62a4c3	0.88532656
44	0x3ebcca71	0.368732
45	0xbf32c790	-0.6983576
46	0x3f11fddd	0.5702799
47	0x3f208634	0.6270478
